data/rnns/subject_examples/WS13/GRU/1_unit_GRU_tanh_unipolar_model_state.pth (torch, 2577 bytes, 5 tensors)

rnn.W_from_in f4 [2, 3]
000000 98 09 00 40 d3 a0 e0 bf e7 e4 71 be 74 ba 96 bf
       2.0005856 -1.754908 -0.23622476 -1.1775651
000010 87 85 ef 3f 82 8d b5 3f
       1.8712624 1.418381

rnn.W_from_h f4 [1, 3]
000000 98 00 33 bf 2f a5 d6 3e 47 9b 56 3f
       -0.6992278 0.419229 0.83830684

rnn.bias f4 [6]
000000 72 8f 46 bf 16 f4 d2 be 3d ff 37 bd 2e f0 46 bf
       -0.7756263 -0.41201848 -0.04492115 -0.77710235
000010 14 01 d3 be 91 88 0a bf
       -0.4121176 -0.54114634

decoder.weight f4 [2, 1]
000000 19 6e 14 bf 96 28 0b 40
       -0.57980496 2.1743522

decoder.bias f4 [2]
000000 52 18 e7 3e b3 92 6e 3e
       0.45135742 0.23298149
