data/rnns/subject_examples/WS22/monoGRU/2_unit_monoGRU_relu_unipolar_model_state.pth (torch, 3468 bytes, 7 tensors)

rnn.W_ih f4 [2, 2]
0.65737396 0.7640073 -0.9499254 0.37962323
00000000: a949 283f fb95 433f 502e 73bf fa5d c23e

rnn.W_hh f4 [2, 2]
0.22311848 -0.28625515 -0.3594312 0.3685883
00000000: 2c79 643e 0990 92be 5e07 b8be 9bb7 bc3e

rnn.W_iz f4 [2, 1]
1.3000743 0.30753645
00000000: d668 a63f 6b75 9d3e

rnn.W_hz f4 [2, 1]
0.9306644 0.31351098
00000000: 0640 6e3f 8384 a03e

rnn.bias_h f4 [2]
0.053803086 -0.53546435
00000000: a060 5c3d 3114 09bf

decoder.weight f4 [2, 2]
1.7843618 -0.5856027 -1.4094069 1.8220631
00000000: f865 e43f 0fea 15bf 7267 b4bf 5d39 e93f

decoder.bias f4 [2]
-0.008557441 -0.0036847214
00000000: 8234 0cbc 5e7b 71bb
