data/rnns/example/NMRNN/1_unit_NMRNN_2_subunits_1_low_rank_model_state.pth (torch, 4661 bytes, 7 tensors)

rnn.W_ih f4 [2, 1]
-0.9843706 1.7653552
00000000: b6ff 7bbf 29f7 e13f

rnn.W_iz f4 [2, 2]
-0.6868337 -1.6580266 0.7998167 1.6092396
00000000: 55d4 2fbf 373a d4bf cac0 4c3f 90fb cd3f

rnn.W_zz f4 [2, 2]
0.93929857 -0.7840111 -0.7422139 0.16527624
00000000: df75 703f f4b4 48bf bb01 3ebf 2d3e 293e

rnn.W_zk f4 [2, 1]
3.5227733 1.9988608
00000000: 1e75 6140 acda ff3f

rnn.bias_z f4 [2]
-0.5066404 -1.242557
00000000: 2fb3 01bf 1c0c 9fbf

decoder.weight f4 [2, 1]
-0.79698324 0.47795126
00000000: 1807 4cbf 07b6 f43e

decoder.bias f4 [2]
0.15433857 -0.36017716
00000000: ee0a 1e3e 2469 b8be
