data/rnns/example/NMRNN/2_unit_NMRNN_2_subunits_2_low_rank_model_state.pth (torch, 4661 bytes, 10 tensors)

rnn.W_ih f4 [2, 2]
000000 5e 56 6a 3f 1a 06 0a c0 28 f5 f7 be cd b7 37 40
       0.91538036 -2.1566224 -0.48429227 2.8705933

rnn.W_hh f4 [2, 2]
000000 a6 4a ac 3e a8 1a 92 3f 98 b1 2a 3f 88 3a ab 3f
       0.33650702 1.1414385 0.66677237 1.3377237

rnn.W_iz f4 [2, 2]
000000 9f 9c 47 3d 05 de 51 bf 0f d2 7c 3e b1 ed a7 3f
       0.04873335 -0.819794 0.24689506 1.3119413

rnn.W_zz f4 [2, 2]
000000 b6 95 91 3f e4 2e a8 3e d6 14 39 3f 70 9b f7 be
       1.1373813 0.32848275 0.7229742 -0.48360777

rnn.W_zk f4 [2, 2]
000000 a4 fc 8f 3f 5a 81 cd bd a9 aa b9 3f 50 06 33 c0
       1.1248975 -0.100344375 1.4505206 -2.7972603

rnn.bias_z f4 [2]
000000 17 55 c1 be ee b2 01 3f
       -0.3776023 0.5066365

rnn.bias_h f4 [2]
000000 ec 64 19 be 39 50 8c 3f
       -0.14979905 1.0961982

rnn.bias_k f4 [2]
000000 7c 38 0c bf 61 10 71 bf
       -0.5477369 -0.9416562

decoder.weight f4 [2, 2]
000000 cc b1 59 bf b0 de a8 bf 18 aa 37 3f fa 6f 48 3e
       -0.8503692 -1.3192959 0.7174392 0.19573966

decoder.bias f4 [2]
000000 d4 3e 1f 3f 0a 89 15 bf
       0.62205243 -0.5841223
