data/rnns/example/NMRNN/2_unit_NMRNN_2_subunits_1_low_rank_model_state.pth (torch, 4661 bytes, 9 tensors)

rnn.W_ih f4 [2, 2]
2.0871267 0.9674064 -2.2406971 -0.39180532
00000000: 7c93 0540 f2a7 773f 9567 0fc0 b59a c8be

rnn.W_hh f4 [2, 2]
0.74755293 -0.65028083 -0.7319465 0.5399442
00000000: a15f 3f3f ce78 26bf d960 3bbf c839 0a3f

rnn.W_iz f4 [2, 2]
0.47992226 0.4913287 0.7011931 0.43628436
00000000: 5fb8 f53e 6f8f fb3e 6481 333f aa60 df3e

rnn.W_zz f4 [2, 2]
0.9543979 -0.35657072 0.04484808 1.1850562
00000000: 6c53 743f 7090 b6be 9fb2 373d ecaf 973f

rnn.W_zk f4 [2, 1]
0.6919119 -1.5130775
00000000: 2321 313f 86ac c1bf

rnn.bias_z f4 [2]
-0.6737886 -0.5598884
00000000: 697d 2cbf d954 0fbf

rnn.bias_h f4 [2]
-1.0565085 -0.13968955
00000000: ac3b 87bf c70a 0fbe

decoder.weight f4 [2, 2]
0.8983781 -1.2605164 -0.75528747 0.5026784
00000000: 1bfc 653f 9a58 a1bf 855a 41bf 88af 003f

decoder.bias f4 [2]
0.54186815 -0.90029323
00000000: dfb7 0a3f 9e79 66bf
