data/rnns/example/NMRNN/2_unit_NMRNN_2_subunits_2_low_rank_model_state.pth (torch, 4661 bytes, 10 tensors)

rnn.W_ih f4 [2, 2]
000000 51 da 0e 3f 4b b2 08 c0 84 87 73 be f3 22 2a 40
       0.55801874 -2.1358821 -0.23782164 2.6583831

rnn.W_hh f4 [2, 2]
000000 b8 7f 58 3f 79 99 c7 be d0 66 34 3e cf 60 75 3f
       0.84569883 -0.38984278 0.17617345 0.95850843

rnn.W_iz f4 [2, 2]
000000 32 69 7b 37 18 73 22 37 18 52 04 37 77 42 45 37
       1.49852585e-05 9.68275e-06 7.886927e-06 1.175759e-05

rnn.W_zz f4 [2, 2]
000000 e3 53 e1 b7 05 2f 19 38 28 d9 49 37 9e f1 ad 38
       -2.6861153e-05 3.6521833e-05 1.2031094e-05 8.2942875e-05

rnn.W_zk f4 [2, 2]
000000 56 d3 ab 38 92 57 da b7 2c 1d 00 39 ea 9c b5 b8
       8.19328e-05 -2.6028403e-05 0.00012217899 -8.65998e-05

rnn.bias_z f4 [2]
000000 45 38 13 bf 3c c9 91 3d
       -0.57507735 0.071184605

rnn.bias_h f4 [2]
000000 93 6e d7 be 17 82 9d 3f
       -0.4207655 1.2305325

rnn.bias_k f4 [2]
000000 d6 27 70 bf 5d 63 f2 3f
       -0.93810785 1.8936573

decoder.weight f4 [2, 2]
000000 ea c1 b8 bf db aa d1 bf 15 be a7 3f 35 b4 03 3f
       -1.4434178 -1.6380266 1.3104883 0.5144685

decoder.bias f4 [2]
000000 0f 06 ce 3e 8e 9a ba be
       0.40238997 -0.3644604
