data/rnns/NMRNN/row/1_unit_NMRNN_2_subunits_1_row_model_state.pth (torch, 3945 bytes, 6 tensors)

rnn.W_ih f4 [3, 1]
00000000: e4a1 2bbe 5a49 f23e 315c 8abf
-0.16760975 0.47321588 -1.0809385

rnn.W_iz f4 [3, 2]
00000000: deeb 573d 139f 2bba 0fd4 6b3e 1cb6 1f3f
00000010: e24a bb3f b899 9cbf
0.052715175 -0.0006546836 0.23030113 0.6238725 1.4632227 -1.2234411

rnn.W_zz f4 [2, 2]
00000000: 6a2f 333e 6f96 26bf 08ab c53f 24a9 3bbf
0.17498556 -0.65073293 1.544282 -0.73304963

rnn.W_zk f4 [2, 1]
00000000: 7d0b db3f 45e8 b6bf
1.7112881 -1.4289633

decoder.weight f4 [2, 1]
00000000: 58ef c83e 9e23 36bf
0.39245105 -0.711481

decoder.bias f4 [2]
00000000: 4277 783c b54e 62be
0.015165152 -0.22100337
