data/rnns/NMRNN/row/2_unit_NMRNN_1_subunits_1_row_model_state.pth (torch, 3945 bytes, 5 tensors)

rnn.W_ih f4 [3, 2]
000000 4b 1e 36 bd 3b cd 9f bd 5e e3 85 3f f4 93 67 bf
       -0.044462483 -0.078028165 1.0460012 -0.90460134
000010 b4 a8 db bf 12 e0 31 3f
       -1.7160859 0.6948253

rnn.W_hh f4 [2, 2]
000000 4d ac 2a 3f bb fb 3a 3f 79 f7 18 3f a8 80 53 3f
       0.6666916 0.7304036 0.59752613 0.8261819

rnn.W_iz f4 [3, 1]
000000 5c a4 a9 b5 98 9f 00 37 18 b6 65 b7
       -1.2639316e-06 7.666553e-06 -1.3691861e-05

decoder.weight f4 [2, 2]
000000 de 5c 64 3f 6f 3e 62 3f 10 53 2d bf 9c 58 19 bf
       0.89204204 0.88376516 -0.6770487 -0.5990083

decoder.bias f4 [2]
000000 81 af 0b 3f 12 51 74 bf
       0.5456467 -0.95436203
