data/rnns/NMRNN/row/2_unit_NMRNN_2_subunits_1_row_model_state.pth (torch, 3945 bytes, 7 tensors)

rnn.W_ih f4 [3, 2]
000000 e4 23 5e bd c1 a3 97 bd 01 52 8a 3f 2a 8e 60 bf
       -0.054233447 -0.074042805 1.0806276 -0.87716925
000010 ed f9 e7 bf 6b f3 31 3f
       -1.8123146 0.6951205

rnn.W_hh f4 [2, 2]
000000 6c ba 29 3f bf 3c 3b 3f ab e9 1b 3f 36 0f 55 3f
       0.6630008 0.73139566 0.60903424 0.83226335

rnn.W_iz f4 [3, 2]
000000 7c d3 28 37 44 24 71 37 22 e2 7c 37 f9 e5 39 37
       1.006282e-05 1.4373163e-05 1.5073021e-05 1.1080404e-05
000010 60 f6 86 b5 4e 63 4b 38
       -1.0055483e-06 4.8491456e-05

rnn.W_zz f4 [2, 2]
000000 ea 9f 6b b6 6d 96 a0 38 84 8a 85 b8 70 02 90 36
       -3.511081e-06 7.6574135e-05 -6.367735e-05 4.291818e-06

rnn.W_zk f4 [2, 1]
000000 3a b9 0b 38 07 fb 66 37
       3.3312688e-05 1.3767515e-05

decoder.weight f4 [2, 2]
000000 b5 0e 56 3f b2 3f b3 3e 10 6d 31 bf c9 d0 8d bf
       0.8361619 0.35009533 -0.6930704 -1.1079341

decoder.bias f4 [2]
000000 0c e5 0b 3f ca a6 67 bf
       0.5464637 -0.90488875
