data/rnns/example/LSTM/2_unit_LSTM_model_state.pth (torch, 3017 bytes, 5 tensors)

rnn.W f4 [2, 8]
00000000: a1ac 1540 fb00 1f40 b2fc bcbe 3f09 e93e
00000010: 1a23 8bbf aadb 66bf ee88 5d3f 1e3f ef3f
00000020: 76fa edbf 5c1f cfbf 0068 793f 8e4f 74bf
00000030: 4873 c53f b6d2 a03f 4571 05bf 5ca7 2f3c
2.3386614 2.4844348 -0.3691154 0.45514867 -1.0870087 -0.9017893 0.86537063 1.8691137
-1.859206 -1.6181445 0.97424316 -0.9543389 1.5425806 1.2564304 -0.5212596 0.010721054

rnn.U f4 [2, 8]
00000000: 5704 a93f 22a0 6bbf 2d48 4e3d b4f3 543d
00000010: 396b 0b3f 15af c2be 1523 363e 75dd b53e
00000020: ab23 b8bf 218a 96bf a77c d73e 7033 9abf
00000030: 407b 483e 23ef 77be 1fcd b13f 363c 1dbf
1.320445 -0.9204122 0.0503618 0.051990226 0.54460484 -0.38024202 0.1778682 0.3552052
-1.4385885 -1.1760904 0.4208729 -1.2046947 0.19578266 -0.24212317 1.3890723 -0.6142

rnn.bias f4 [8]
00000000: cd6b 0cbf b02f 7b3e a059 103f a74f 8dbd
00000010: 4c11 183f 9d9c 3c3f 12f9 4e3f 36e1 d63e
-0.5485199 0.2452991 0.56386757 -0.06899958 0.5940139 0.7367647 0.808488 0.41968697

decoder.weight f4 [2, 2]
00000000: 14e5 f7be a802 8cbf 8cc4 783f 7346 c43f
-0.4841696 -1.0938311 0.97174907 1.5333999

decoder.bias f4 [2]
00000000: baf9 c73e 1af8 94be
0.39057714 -0.29095536
