data/rnns/subject_examples/WS10/GRU/1_unit_GRU_tanh_unipolar_model_state.pth (torch, 2577 bytes, 5 tensors)

rnn.W_from_in f4 [2, 3]
1.7407775 -1.9436082 -0.61091065 -1.5854495 1.8583007 1.5245936
00000000: ccd1 de3f 27c8 f8bf a464 1cbf 02f0 cabf
00000010: ccdc ed3f e225 c33f

rnn.W_from_h f4 [1, 3]
-0.72831225 0.5683211 0.9756292
00000000: ac72 3abf 7e7d 113f d6c2 793f

rnn.bias f4 [6]
-0.5111176 -0.1862686 0.12771639 -0.5106299 -0.18693571 -0.3934075
00000000: 9ad8 02bf 32bd 3ebe 16c8 023e a4b8 02bf
00000010: 136c 3fbe b56c c9be

decoder.weight f4 [2, 1]
-0.64423174 2.2387795
00000000: 5fec 24bf 2a48 0f40

decoder.bias f4 [2]
0.52937204 0.154967
00000000: ed84 073f abaf 1e3e
