data/rnns/subject_examples_MA/MA14/GRU/1_unit_GRU_tanh_unipolar_model_state.pth (torch, 2577 bytes, 5 tensors)

rnn.W_from_in f4 [2, 3]
2.2605073 -1.3765584 -0.49433205 -0.7292855 1.1517572 1.5744939
00000000: 27ac 1040 1133 b0bf 1719 fdbe 74b2 3abf
00000010: c86c 933f 0489 c93f

rnn.W_from_h f4 [1, 3]
-0.3137784 -0.43316683 1.2631248
00000000: 90a7 a0be 0bc8 ddbe 13ae a13f

rnn.bias f4 [6]
-0.47015435 0.021734722 0.010179515 -0.4716304 0.02163548 -0.19390759
00000000: 12b8 f0be 040d b23c fbc7 263c 8a79 f1be
00000010: e43c b13c b68f 46be

decoder.weight f4 [2, 1]
-0.34034267 1.9348887
00000000: 6541 aebe 6faa f73f

decoder.bias f4 [2]
0.7845543 -0.10021581
00000000: 8dd8 483f f23d cdbd
