data/rnns/subject_examples_MA/MA08/monoGRU/2_unit_monoGRU_relu_unipolar_model_state.pth (torch, 3468 bytes, 7 tensors)

rnn.W_ih f4 [2, 2]
0	0x3f27354d	0.65315706
1	0x3f2bfbf2	0.67181313
2	0xbf3cae19	-0.7370315
3	0x3ea1c8df	0.31598565

rnn.W_hh f4 [2, 2]
0	0x3e39944c	0.18122977
1	0xbf02f9cd	-0.51162416
2	0xbe20f0e8	-0.15716898
3	0x3e076d81	0.13225366

rnn.W_iz f4 [2, 1]
0	0x3fb45b3c	1.4090343
1	0xbf1516b2	-0.58237755

rnn.W_hz f4 [2, 1]
0	0x3d7204c7	0.059086587
1	0x3ebb85a9	0.36625412

rnn.bias_h f4 [2]
0	0x3d858eb7	0.06521361
1	0xbeb3cf9b	-0.35119328

decoder.weight f4 [2, 2]
0	0x3fd4f537	1.6637334
1	0xbf07b0a1	-0.5300389
2	0xbfa4f6b2	-1.2887785
3	0x3fe21ca7	1.7664994

decoder.bias f4 [2]
0	0x3b479fd5	0.0030460258
1	0xbc7a7b02	-0.015288116
