data/rnns/subject_examples_MA/MA12/GRU/2_unit_GRU_tanh_unipolar_model_state.pth (torch, 2769 bytes, 5 tensors)

rnn.W_from_in f4 [2, 6]
000000 41 68 6c c0 72 90 6e 3f cf 8f 4b c0 27 fb 90 c0
       -3.6938632 0.93189156 -3.1806524 -4.5306582
000010 e0 90 a2 bd 3e f9 ae be 2d 26 3f 3e 23 c6 3c bf
       -0.07937789 -0.34174532 0.18666907 -0.7373983
000020 f5 88 8a be b3 de 8d 3f dc 12 0c bf 54 12 ca 3f
       -0.27057615 1.1083587 -0.5471628 1.5786843

rnn.W_from_h f4 [2, 6]
000000 26 be 17 3f b0 32 95 bf fb 1d a7 3f 3d 11 bd be
       0.5927452 -1.1656094 1.3056024 -0.36927214
000010 11 8c 0d c0 97 2e b3 be 08 20 ec be 90 9b 5c bd
       -2.211674 -0.34996483 -0.46118188 -0.053859293
000020 db e7 81 3e 55 3f 03 bf a4 a2 01 40 d9 ed 92 3f
       0.25372204 -0.5126851 2.0255518 1.1478835

rnn.bias f4 [12]
000000 4d 04 47 3f 74 bd a4 3e c7 a4 6a 3e af d8 b8 3f
       0.7774094 0.3217579 0.2291442 1.4441127
000010 3b 55 52 3e fe 90 06 be 43 9a 46 3f e0 ea a4 3e
       0.20540325 -0.13141248 0.77579135 0.32210445
000020 77 a7 69 3e 2b cc b8 3f 1d 23 b1 3e 7b 13 93 be
       0.22817789 1.4437307 0.34597102 -0.287258

decoder.weight f4 [2, 2]
000000 dd 7a b5 3f 6b e4 e6 be 69 7c 85 bf 69 fd d7 3f
       1.417812 -0.45096144 -1.0428592 1.687421

decoder.bias f4 [2]
000000 3d d5 da bb 6f 50 b6 bb
       -0.006678252 -0.0055637877
