data/rnns/subject_examples/WS22/GRU/1_unit_GRU_tanh_unipolar_model_state.pth (torch, 2577 bytes, 5 tensors)

rnn.W_from_in f4 [2, 3]
1.5346061 -1.8852459 -0.6849045 -1.745937 1.9154518 1.672775
00000000: f96d c43f bd4f f1bf e755 2fbf dd7a dfbf
00000010: 862d f53f 7e1d d63f

rnn.W_from_h f4 [1, 3]
-0.5090451 1.8399518 0.91732126
00000000: c850 02bf 8a83 eb3f 91d5 6a3f

rnn.bias f4 [6]
-0.41489762 0.24280353 0.101455696 -0.4167412 0.24290927 -0.37312937
00000000: 766d d4be 7da1 783e 01c8 cf3d 1a5f d5be
00000010: 35bd 783e d00a bfbe

decoder.weight f4 [2, 1]
-0.4477274 2.0422745
00000000: 873c e5be a0b4 0240

decoder.bias f4 [2]
0.3700773 0.3142617
00000000: c67a bd3e e9e6 a03e
