data/rnns/subject_examples/WS02/GRU/1_unit_GRU_tanh_unipolar_model_state.pth (torch, 2577 bytes, 5 tensors)

rnn.W_from_in f4 [2, 3]
000000 d5 51 01 40 db d8 8a 3f 71 27 be bf cb 55 65 3f
       2.0206196 1.0847429 -1.4855787 0.89584035
000010 da 1f 75 40 4c 31 f9 be
       3.830069 -0.48670423

rnn.W_from_h f4 [1, 3]
000000 93 6b 32 bf 66 39 6e 3f 90 66 3e 3f
       -0.69695395 0.93056333 0.7437525

rnn.bias f4 [6]
000000 c8 5c d5 be 5e fe 16 3e ec 36 5c 3e 66 69 d5 be
       -0.4167235 0.14745471 0.21505326 -0.41681975
000010 6a 4f 17 3e 60 43 4a be
       0.14776388 -0.19752264

decoder.weight f4 [2, 1]
000000 a6 8f b3 be 02 fe f8 3f
       -0.35070533 1.9452517

decoder.bias f4 [2]
000000 eb 8c 3b 3e 97 4d 00 3f
       0.18315475 0.5011839
