data/rnns/LSTM/2_unit_LSTM_model_state.pth (torch, 3017 bytes, 5 tensors)

rnn.W f4 [3, 8]
00000000: cb7b 5b3e b0be eab5 b9e3 1f3f de87 18b8
00000010: 2d14 e73d b78a ed37 697a f337 0441 7eb8
00000020: 6697 e83f d899 0138 8681 6bb9 b6cd ff37
00000030: d5fb 683f 8aa5 99b7 b7ad 4c3f 6c0d 7cb7
00000040: 274e 91bf a05a 62b5 b154 03b7 f41e 5938
00000050: eb0e 8dbf 143a 11b6 6376 8137 ac64 0c3d
0.21433942 -1.7489856e-06 0.6245685 -3.636616e-05 0.11283145 2.8317196e-05 2.9024859e-05 -6.061887e-05
1.8171203 3.0899275e-05 -0.00022459598 3.049416e-05 0.91009265 -1.8316106e-05 0.7995257 -1.50234955e-05
-1.1351975 -8.432344e-07 -7.827927e-06 5.176566e-05 -1.1020178 -2.164049e-06 1.5433126e-05 0.034275696

rnn.U f4 [2, 8]
00000000: c775 feb7 2fc1 06b8 88f3 f2b5 641a e4b7
00000010: 0c49 25be 1043 9337 32fa 23b7 5c05 ebb6
00000020: 28f1 3eb7 e812 c0b6 a1a5 70b8 6474 b237
00000030: b1ba a63e 5713 aab7 4e92 60b7 608d 3fb7
-3.0334004e-05 -3.2128006e-05 -1.8101282e-06 -2.7192007e-05 -0.16141146 1.7554994e-05 -9.77381e-06 -7.0041697e-06
-1.1381031e-05 -5.724247e-06 -5.7374713e-05 2.1273452e-05 0.3256431 -2.0274585e-05 -1.3385505e-05 -1.1417404e-05

rnn.bias f4 [8]
00000000: d950 4dbf 62db 5fbd 0463 823d 8587 ad3f
00000010: 3695 11bf 888c 9bbf 167e 3c3f b4b0 303f
-0.8020149 -0.05465258 0.06366542 1.3556982 -0.568683 -1.2152262 0.7362989 0.6901963

decoder.weight f4 [2, 2]
00000000: 5846 1140 2329 b7bf 4617 27c0 d70c 3a3f
2.2699184 -1.4309429 -2.6107955 0.7267584

decoder.bias f4 [2]
00000000: 459f 57be 025f 7e3e
-0.2105685 0.2484093
