data/rnns/subject_examples_MA/MA13/GRU/2_unit_GRU_tanh_unipolar_model_state.pth (torch, 2769 bytes, 5 tensors)

rnn.W_from_in f4 [2, 6]
1.0712626 1.1201676 -2.819749 -2.430474 0.25006106 -0.37954 -1.0970002 -1.1189181
1.4107829 1.3597757 -0.96697116 0.7065692
00000000: 221f 893f a761 8f3f c576 34c0 e38c 1bc0
00000010: 0108 803e 1153 c2be 816a 8cbf b538 8fbf
00000020: 8994 b43f 210d ae3f 6c8b 77bf b8e1 343f

rnn.W_from_h f4 [2, 6]
0.7101831 0.6774852 -0.09473277 -0.4878935 0.2040057 -0.49349013 -0.74314356 -0.77475584
-0.72579974 -0.34018427 -0.42899978 0.8495024
00000000: 8fce 353f ac6f 2d3f 4103 c2bd 2dcd f9be
00000010: dfe6 503e bdaa fcbe a83e 3ebf 6656 46bf
00000020: 03ce 39bf a22c aebe dca5 dbbe fd78 593f

rnn.bias f4 [12]
-0.48447263 -0.1532731 -0.37737516 0.7426229 0.001389739 0.049117804 -0.48387283 -0.15237242
-0.3773112 0.7411682 0.08588343 -0.06719779
00000000: cc0c f8be a0f3 1cbe 5137 c1be 891c 3e3f
00000010: e727 b63a c02f 493d 2ebe f7be 8407 1cbe
00000020: ef2e c1be 33bd 3d3f a7e3 af3d ff9e 89bd

decoder.weight f4 [2, 2]
1.3841499 -0.10490082 -1.009194 1.3413622
00000000: d32b b13f 3ed6 d6bd 452d 81bf c2b1 ab3f

decoder.bias f4 [2]
0.24906857 -0.26131058
00000000: d50b 7f3e 80ca 85be
