data/rnns/NMRNN/low_rank/2_unit_NMRNN_2_subunits_1_low_rank_model_state.pth (torch, 4079 bytes, 7 tensors)

rnn.W_ih f4 [3, 2]
0	0xbd18248c	-0.03714423
1	0x3df8fe56	0.12157886
2	0x3f8501f0	1.0391216
3	0x3f94c03f	1.1621169
4	0xbfc13f18	-1.509738
5	0xbf47311c	-0.7780931

rnn.W_hh f4 [2, 2]
0	0x3f46fc6b	0.7772891
1	0xbf2ba493	-0.67047995
2	0xbf21508a	-0.6301352
3	0x3f8050d0	1.0024662

rnn.W_iz f4 [3, 2]
0	0x3653ec00	3.157882e-06
1	0xb8f1c186	-0.00011527822
2	0xb6e9f460	-6.97239e-06
3	0x39080b1c	0.00012974109
4	0xb877dc37	-5.909448e-05
5	0xb63ae790	-2.7850947e-06

rnn.W_zz f4 [2, 2]
0	0xb8215e7a	-3.847338e-05
1	0x37eab05e	2.7977101e-05
2	0x3729b100	1.0114396e-05
3	0xb5108e00	-5.385082e-07

rnn.W_zk f4 [2, 1]
0	0x381ca6f1	3.7348775e-05
1	0xb85b7bec	-5.232908e-05

decoder.weight f4 [2, 2]
0	0x3f60a5c0	0.87752914
1	0xbf881f5a	-1.0634568
2	0xbf3c0420	-0.73443794
3	0x3e9c79f9	0.30561808

decoder.bias f4 [2]
0	0x3f0a24c6	0.5396236
1	0xbf65e688	-0.8980489
