data/rnns/subject_examples_MA/MA10/monoGRU/2_unit_monoGRU_relu_unipolar_model_state.pth (torch, 3468 bytes, 7 tensors)

rnn.W_ih f4 [2, 2]
0	0x3f484979	0.7823711
1	0x3ec4b604	0.38420117
2	0xbf3dec7d	-0.7418898
3	0x3cf4a61d	0.029864365

rnn.W_hh f4 [2, 2]
0	0x3e4acdf5	0.19805129
1	0xbf83f4a5	-1.0309035
2	0xbee86d2b	-0.4539579
3	0x3ee59d2e	0.4484648

rnn.W_iz f4 [2, 1]
0	0x3f71adda	0.944059
1	0xbf85eb62	-1.0462458

rnn.W_hz f4 [2, 1]
0	0x3e0d0d57	0.1377462
1	0x402759a8	2.6148472

rnn.bias_h f4 [2]
0	0x3c98bede	0.0186457
1	0x3d8d0336	0.06885378

decoder.weight f4 [2, 2]
0	0x3fec4671	1.8458997
1	0xbe56b29c	-0.20966572
2	0xbfbc47e9	-1.4709445
3	0x3fb91a9e	1.4461248

decoder.bias f4 [2]
0	0xbdeac879	-0.114640184
1	0x3dd1b62a	0.10239823
