data/rnns/subject_examples/WS05/GRU/1_unit_GRU_tanh_unipolar_model_state.pth (torch, 2577 bytes, 5 tensors)

rnn.W_from_in f4 [2, 3]
00000000: 5cbe 083f f65a 663e be94 f8be 2118 3dbe
00000010: 2818 5d3f 07ff 1b3d
0.53415465 0.22495636 -0.4855098 -0.18466236 0.86364985 0.03808501

rnn.W_from_h f4 [1, 3]
00000000: 7dde b2be 83ce 09bf 8304 c83e
-0.3493537 -0.53830737 0.39065942

rnn.bias f4 [6]
00000000: b2a9 d13e bf06 d63e 1b47 d2be 9ee9 d13e
00000010: 50af d53e 7979 d7be
0.4094978 0.41802022 -0.41069874 0.40998548 0.41735315 -0.42084864

decoder.weight f4 [2, 1]
00000000: 97ca e63e 7367 923f
0.4507644 1.143782

decoder.bias f4 [2]
00000000: 0b1f ac3d f4ac 193f
0.084043585 0.6002953
