data/rnns/GRU/1_unit_GRU_model_state.pth (torch, 2878 bytes, 5 tensors)

rnn.W_from_in f4 [3, 3]
00000000: 2f10 163f 2eb0 debe 5f1e 193f 1b95 33be
00000010: 09de 0f3f 2ec2 3cbf 6c68 18bf 88ff ce3e
00000020: 4686 9c3e
0.58618444 -0.4349379 0.5981197 -0.17537348 0.56198174 -0.73733795 -0.59534335 0.4042933
0.30571193

rnn.W_from_h f4 [1, 3]
00000000: 3c39 83be c570 213f bf15 313f
-0.25629604 0.630627 0.69173807

rnn.bias f4 [6]
00000000: fea6 2fbf ec36 f2be 75f0 733f 03c8 98be
00000010: ed62 96be f5a6 7ebf
-0.68614185 -0.47307527 0.95288783 -0.29840097 -0.2937235 -0.99473506

decoder.weight f4 [2, 1]
00000000: aeca 25bf 9a46 a63e
-0.6476239 0.3247574

decoder.bias f4 [2]
00000000: 0ff2 41be 7421 2bbf
-0.18939994 -0.6684792
