data/RNNs/GRU/1_unit_GRU_model_state.pth (torch, 2878 bytes, 5 tensors)

rnn.W_from_in f4 [3, 3]
000000 ca b0 1b 3f 7c 96 d8 be 2e 61 14 3f 38 92 1f be
       0.60816634 -0.4230231 0.57960784 -0.15583122
000010 7b 09 0e 3f 02 52 41 bf 8f 4f 19 bf a4 30 cf 3e
       0.55483216 -0.7551576 -0.5988702 0.40466797
000020 0c 61 9d 3e
       0.30738103

rnn.W_from_h f4 [1, 3]
000000 53 f1 7d be a6 9a 1b 3f 9d 6f 2f 3f
       -0.24799089 0.6078285 0.68529683

rnn.bias f4 [6]
000000 6c 04 2a bf 2e f4 01 bf 98 3c 71 3f e2 82 8d be
       -0.66413 -0.50763214 0.94233084 -0.27638918
000010 5e 14 a8 be b6 e8 81 bf
       -0.3282804 -1.0149143

decoder.weight f4 [2, 1]
000000 31 f1 27 bf 99 93 aa 3e
       -0.65602404 0.33315733

decoder.bias f4 [2]
000000 1b 10 44 be f3 99 2a bf
       -0.19146769 -0.6664116
