data/rnns/NMRNN/column/2_unit_NMRNN_1_subunits_1_column_model_state.pth (torch, 3987 bytes, 5 tensors)

rnn.W_ih f4 [3, 2]
00000000: 3c77 a43d e0e0 44bd d346 2b3f e1cd 6fbf
00000010: e3a7 c5bf 0bb5 333f
0.08030555 -0.04806602 0.66904944 -0.9367352 -1.544186 0.70198125

rnn.W_hh f4 [2, 2]
00000000: 9d81 0340 01b4 143f 8dbe 0040 59db 1d3f
2.054786 0.58087164 2.0116303 0.6166282

rnn.W_iz f4 [3, 1]
00000000: b0da 6b3e 68fe c3bf 9372 5240
0.23032641 -1.5312014 3.288243

decoder.weight f4 [2, 2]
00000000: fcc3 713f 7be4 573f 29ba 3abf a3fe 0ebf
0.94439673 0.8433301 -0.7294031 -0.55857295

decoder.bias f4 [2]
00000000: 3302 103f c3a3 78bf
0.56253356 -0.9712488
