data/rnns/subject_examples/WS09/GRU/1_unit_GRU_tanh_unipolar_model_state.pth (torch, 2577 bytes, 5 tensors)

rnn.W_from_in f4 [2, 3]
0	0xbb271b64	-0.0025498504
1	0xbfeed5e5	-1.8659025
2	0xbe4a20d0	-0.1973908
3	0xbff540f8	-1.9160452
4	0x3fc10303	1.5079044
5	0x3fb870d2	1.440943

rnn.W_from_h f4 [1, 3]
0	0xbf3d79ca	-0.7401396
1	0xbbc28afd	-0.005936979
2	0x3f594877	0.848762

rnn.bias f4 [6]
0	0x3e056f74	0.13030797
1	0x3f18dcea	0.5971209
2	0xbe14716d	-0.14496394
3	0x3e05ef4c	0.13079566
4	0x3f18b132	0.5964538
5	0xbed0d371	-0.40786317

decoder.weight f4 [2, 1]
0	0xbdc994f5	-0.098428644
1	0x3fd8b366	1.6929748

decoder.bias f4 [2]
0	0x3e9327b0	0.28741217
1	0x3ecb39f8	0.39692664
