data/rnns/subject_examples/WS16/monoGRU/2_unit_monoGRU_relu_unipolar_model_state.pth (torch, 3468 bytes, 7 tensors)

rnn.W_ih f4 [2, 2]
00000000: 99ec 633f 7d90 543f 8da4 5dbf 1df9 923e
0.89032894 0.8303297 -0.8657921 0.28705683

rnn.W_hh f4 [2, 2]
00000000: f60d 953d 1648 11bf 9303 67be 7395 423e
0.072780535 -0.5675062 -0.22559957 0.19002323

rnn.W_iz f4 [2, 1]
00000000: ca0a b63f 32b2 dcbe
1.4222043 -0.43104702

rnn.W_hz f4 [2, 1]
00000000: 89e7 fe3e 6bc2 813f
0.49786022 1.0137457

rnn.bias_h f4 [2]
00000000: 5f6a 6f3c d2e0 c9be
0.014612763 -0.39429337

decoder.weight f4 [2, 2]
00000000: b66d ec3f 01e8 16bf 356f bcbf 4bb8 e93f
1.8470981 -0.5894776 -1.4721438 1.8259367

decoder.bias f4 [2]
00000000: d716 f6bd 7304 dd3d
-0.12016075 0.10791864
