data/rnns/subject_examples/WS18/GRU/1_unit_GRU_tanh_unipolar_model_state.pth (torch, 2577 bytes, 5 tensors)

rnn.W_from_in f4 [2, 3]
2.4554882 -2.612004 -0.49513057 -1.6194146 2.4638216 1.6580715
00000000: b826 1d40 132b 27c0 c181 fdbe fa48 cfbf
00000010: 41af 1d40 b03b d43f

rnn.W_from_h f4 [1, 3]
-1.6267343 0.4781781 1.3638687
00000000: d438 d0bf c3d3 f43e 4093 ae3f

rnn.bias f4 [6]
-0.92850167 -0.3909368 0.19123407 -0.928598 -0.3906275 -0.37254772
00000000: 49b2 6dbf de28 c8be ddd2 433e 99b8 6dbf
00000010: 5400 c8be 93be bebe

decoder.weight f4 [2, 1]
-0.6187408 2.2132857
00000000: cc65 1ebf 79a6 0d40

decoder.bias f4 [2]
0.80376226 -0.119423606
00000000: 5dc3 4d3f 5d94 f4bd
