data/rnns/subject_examples/WS18/GRU/2_unit_GRU_tanh_unipolar_model_state.pth (torch, 2769 bytes, 5 tensors)

rnn.W_from_in f4 [2, 6]
000000 28 2a af 3f ae 64 86 3f 9d 2d 41 c0 b7 84 17 c0
       1.368474 1.0499475 -3.018409 -2.3674753
000010 30 dc 80 3e 3c 9a 2a bf 18 42 ce bf ea 49 bb bf
       0.2516799 -0.6664159 -1.611392 -1.4631932
000020 5a 30 25 40 c7 83 02 40 99 f8 8c bf 7a e5 3a 3f
       2.5810761 2.039293 -1.1013366 0.73006403

rnn.W_from_h f4 [2, 6]
000000 8f 94 a3 3d 59 e6 89 3f af e2 6e bf 47 72 04 c0
       0.0798732 1.0773422 -0.9331464 -2.069475
000010 86 e0 23 be c4 8d ea be b6 06 12 bf 1a 49 b3 bf
       -0.16003618 -0.45811284 -0.5704149 -1.4006684
000020 b0 4a 36 3f 73 23 6c 3f cb 8d 07 bf 70 3c 89 3f
       0.71207714 0.9224159 -0.52950734 1.0721569

rnn.bias f4 [12]
000000 93 ba 1f bf 02 32 fd be a7 c2 21 bf 4e 61 07 3f
       -0.62394065 -0.49452215 -0.6318764 0.5288285
000010 94 4c 8a bd be 8b 8a 3e 9d 24 20 bf 96 04 fd be
       -0.06752887 0.2705974 -0.6255587 -0.4941756
000020 fd 01 22 bf 46 48 07 3f c3 a9 8a 3e 04 45 40 3d
       -0.63284284 0.52844656 0.27082643 0.04694082

decoder.weight f4 [2, 2]
000000 e9 e8 af 3f 30 b0 02 bf c7 d4 7f bf 68 9c df 3f
       1.3742954 -0.5105009 -0.9993405 1.7469606

decoder.bias f4 [2]
000000 b3 9b d2 3e 4e e0 d8 be
       0.41134414 -0.4235863
