data/rnns/subject_examples/WS14/GRU/2_unit_GRU_tanh_unipolar_model_state.pth (torch, 2769 bytes, 5 tensors)

rnn.W_from_in f4 [2, 6]
0.054369044 1.2461381 -1.96945 -1.9107658 -0.58836263 -0.791146 -0.56613845 -0.18710467
-1.2521038 2.090868 -0.69066876 0.84968626
00000000: 13b2 5e3d 7481 9f3f f016 fcbf f993 f4bf
00000010: ef9e 16bf 8b88 4abf 73ee 10bf 5e98 3fbe
00000020: f044 a0bf c8d0 0540 abcf 30bf 0a85 593f

rnn.W_from_h f4 [2, 6]
0.107315905 -0.33488327 1.5500971 -1.8191991 0.3644366 0.08412511 1.2814544 0.21243586
-0.9350099 1.107015 0.23421665 1.0078396
00000000: 71c8 db3d d275 abbe 9569 c63f 84db e8bf
00000010: 6f97 ba3e c949 ac3d b306 a43f c988 593e
00000020: cf5c 6fbf abb2 8d3f 7dd6 6f3e e300 813f

rnn.bias f4 [12]
0.3775513 0.17491291 0.07993404 0.34341452 0.49642682 0.40039474 0.37753373 0.17554404
0.07903377 0.34371194 0.6484526 -0.0031862133
00000000: 674e c13e 5f1c 333e 75b4 a33d 07d4 af3e
00000010: a82b fe3e 8a00 cd3e 1a4c c13e d1c1 333e
00000020: 75dc a13d 03fb af3e fd00 263f cacf 50bb

decoder.weight f4 [2, 2]
1.4193033 -0.78135484 -1.0443481 2.0178149
00000000: bbab b53f df06 48bf 33ad 85bf e123 0140

decoder.bias f4 [2]
-0.017042719 0.0048005106
00000000: 2c9d 8bbc 9a4d 9d3b
