data/rnns/subject_examples_MA/MA02/GRU/2_unit_GRU_tanh_unipolar_model_state.pth (torch, 2769 bytes, 5 tensors)

rnn.W_from_in f4 [2, 6]
000000 80 38 82 3f c2 84 5b 3f 8a 2e d1 bf 1b 13 f9 bf
       1.0173492 0.8574945 -1.6342328 -1.9458956
000010 2e a4 ff 3d 53 1e 77 be 3f 5a 97 be de 5c 5a bd
       0.12482487 -0.24132662 -0.2956104 -0.05331122
000020 2c c1 6c 3f b7 05 9b 3f a8 4b 3f bf 61 92 6c 3f
       0.92482257 1.2111119 -0.7472482 0.92410856

rnn.W_from_h f4 [2, 6]
000000 f9 93 8d be 53 f7 8a 3d 50 3d cd be 36 37 33 3f
       -0.27651957 0.067854546 -0.4008584 0.7000612
000010 99 5d fd bd 4d 5e d5 be a1 8d 3f 3e d7 08 23 3e
       -0.12371368 -0.41673508 0.18706371 0.15921341
000020 65 01 18 bf 61 16 37 3e 4a f1 e7 be 80 2d 3a 3f
       -0.5937713 0.1787963 -0.45301276 0.7272568

rnn.bias f4 [12]
000000 ab 0a de bd ab 50 33 3e 37 c7 2d bf 95 2e 33 3f
       -0.108418785 0.17511241 -0.678821 0.69992954
000010 7f 88 0c 3e 98 32 16 be 35 d0 dc bd c3 3c 34 3e
       0.13723944 -0.14667737 -0.107819 0.17601304
000020 05 c3 2d bf 3f cf 32 3f 8b f8 46 3e 61 59 65 be
       -0.678757 0.6984748 0.19430749 -0.22397377

decoder.weight f4 [2, 2]
000000 f0 3c 81 3f a9 15 26 be f7 7c 22 bf 1e 07 b3 3f
       1.0096722 -0.162192 -0.6347193 1.3986547

decoder.bias f4 [2]
000000 bb ca b5 3c 1d 0a 0d bd
       0.022191396 -0.034433473
